pretrained_models/trained_weights.pth (torch_old, 5023 bytes, 8 tensors)

fc1.weight f4 [16, 49]
00000000: 7751 aa3d edb3 04be 3599 a0bd 5227 753e
00000010: 57e2 7b3e c873 6dbc 64cf 15bb 7a94 bfbd
00000020: c3f7 41be 25c1 2fbe ab8d fc3e 6026 e73d
00000030: de33 f73d 4979 b2bd f976 84bc c669 ddbb
00000040: a02c 103e 52f3 333f 014b ba3c b76a cbbe
00000050: 284f cdbe d659 2fbe 55be 8d3e b48a 383e
00000060: 290d 4d3e 74d1 d23e 9b7c 48be 0425 92be
00000070: b2b3 02bf ed50 4abf df38 ccbe 55b0 6cbf
00000080: e9b8 893e af0b 52bd 657b 7b3d 73ee c6be
00000090: 0a19 6fbe 46a6 633e 1dec efbe d3eb ee3d
000000a0: 0b4b 943d 01fc 05bb dc5a 493e 4cf5 503e
000000b0: b40c 5b3e 0112 353e e97c 14be 2df4 86be
000000c0: e5dd 20bd 7e68 2a3e bc69 bfbc 8f7a b03d
000000d0: 0261 b13d 1118 3c3d 3573 143d 1577 30be
000000e0: dcc6 073e 5a96 063e 4243 a6bd 93dc ed3e
000000f0: fdce 933e 3486 82bd d6ad 88bd 134a 3abd
00000100: 2317 60be 12ce b43c 79e1 893e d07c 683e
00000110: c165 18be ef88 e6be 2292 bcbd 87aa b13e
00000120: cd70 903e 3317 353e e289 e2bd f05c 5dbe
00000130: b0be c2be 44ce d7bd ef9f 9bbe 2aa0 8dbe
00000140: 8979 06be ce25 573d 6140 a6be 17fb ab3d
00000150: aee0 903e afee 0f3e 8aad 853e 4a32 fe3d
00000160: 46d9 cbbd d421 ccbe d1ce 93bb b1ff 8f3d
00000170: 83db 983c beef 073d 304f 4fbd d774 41bc
00000180: 1fef 32be bfaa 0c3d 53e4 54bd 8b6c 6abd
00000190: 8d80 183e 18f4 1a3e 1c86 b73d b614 a5bd
000001a0: d63b 423e caea 0cbd 3993 4abd 2e37 fe3c
000001b0: 71f7 a03e e9ad 93bd ec2f bebd 7be2 c4bc
000001c0: 78b2 2ebe ffdc debc 0d67 073e 5dd5 0b3f
000001d0: 1bf0 a53d c645 0abf 41bd 74bd 1898 10be
000001e0: 4359 c7bd 4229 fd3e 3dab 833e cf7a a4bd
000001f0: 99d9 0abf c19b 1abe 38fe aebc ef18 93bd
00000200: c7d4 b7bd 730b 893d 4663 d23d 1e76 0fbe
00000210: 968c a03e 3f79 9bbe dc1e b3be 3f18 18bc
00000220: 1970 46be afa5 a2bd c22f 45be e9a4 923e
00000230: 5ea7 943c 20fb 16be f17f d33d 9cc1 8abd
00000240: e860 f73c ea6b 5dbd b675 ce3d b59f 983d
00000250: 6c52 fb3d d7bc 88bd 6fa1 62bc 79a6 1dbe
00000260: ac13 583e 435d c8be 69b5 b73d e9cb 293e
00000270: 7509 af3d 7feb 223e a3ed 823e 5d93 4d3e
00000280: 527a fdbd 9890 3c3e 5e15 243e 7a3c c23c
00000290: b439 083e 0b1a 5b3e 2221 913e fa77 57be
000002a0: 552b 2dbe dfd8 36be 083b a83e 2b73 33bd
000002b0: 8109 2bbf c1ee 793e 10c6 9fbd 04ed 52be
000002c0: 58a5 e8be f45f 90be da72 923f eff8 81be
000002d0: f3ef 153f 38fb 023f 8cda 12bf 526b dcbe
000002e0: fce5 a7be c323 0f3f ab87 c2be e63b 1c3f
000002f0: dae8 d43e 6a10 d0bd 40a7 c0be 4426 8dbe
00000300: 48b4 163e 6c68 8abe 75ce 153f 6390 053f
00000310: d7c4 0abf 1e3f 5bbe 9931 15bf 54c2 cdbe
00000320: f93f 1abf f0bc 1a3e 126e 43be 45ff 62be
00000330: d099 55bc 715f 7cba 308c 7abe 8fdb 3fbe
00000340: 684d 2b3e 772a f7bd 612d ac3e e2dd 9f3e
00000350: 362e a33e d392 b53e d84e 093f 8f77 143f
00000360: a711 93be d36c febd 9936 8dbe 1e7b e93d
00000370: 6e3b 443e 8cbf 0abe 3521 0f3f f9be 7a3e
00000380: 64ef ba3c 16cb 003e d79e 383d 784a 893f
00000390: e968 133e 40bc 8a3f ac3e e23e bfa7 e7bd
000003a0: d29a 4dbe 3e79 02be d52a cf3e a1ab b4bc
000003b0: 78cb 673f c7bc 0d3f 4eb2 12bd 7cb4 783b
000003c0: d5df c9bb 783f 4a3e 1cc6 dc3d 7f08 613f
000003d0: 2237 f13e 2538 8bbd 2a69 10be 5d43 773d
000003e0: 8f24 3cbe 18b1 24be fe94 8cbe 8079 15be
000003f0: 5038 a2bc 5f37 c8bc 73ea 093e 2cc9 19be
0.083163194 -0.12959261 -0.07841722 0.23940781 0.2459806 -0.014492936 -0.002285921 -0.093544915
-0.1894217 -0.17163523 0.49326834 0.11286616 0.1207044 -0.087145396 -0.016170012 -0.006756994
0.14079523 0.7029315 0.022740843 -0.39729854 -0.40099454 -0.17124113 0.27684274 0.18021661
0.20024551 0.41175425 -0.19578783 -0.28543866 -0.51055443 -0.7902973 -0.3988714 -0.9245656
0.26898888 -0.051280674 0.061396975 -0.38853797 -0.23349395 0.22231397 -0.46859828 0.11666074
0.07240876 -0.0020444395 0.19663566 0.20406073 0.21391565 0.17682649 -0.14500774 -0.26358166
-0.039274115 0.16641423 -0.023365848 0.08617126 0.08661081 0.04592139 0.036242682 -0.17232926
0.13259453 0.13143292 -0.08118297 0.46457347 0.28868857 -0.063732535 -0.066737816 -0.0454808
-0.21883826 0.022070918 0.26929834 0.22703862 -0.14882566 -0.45026347 -0.0920756 0.34700415
0.2821106 0.17684631 -0.11061455 -0.21617484 -0.38036108 -0.10537389 -0.30395457 -0.27661258
-0.131323 0.052526288 -0.32470992 0.08397501 0.28296417 0.14055894 0.26108962 0.124119356
-0.09953551 -0.3986956 -0.0045107384 0.07031191 0.018659359 0.03318762 -0.05061263 -0.011807642
-0.1747403 0.034342524 -0.05197556 -0.05723242 0.14892788 0.15132177 0.08961126 -0.08060591
0.18968138 -0.0344036 -0.04945681 0.031032171 0.31438783 -0.07210905 -0.09286484 -0.024033776
-0.17060268 -0.027204989 0.13222905 0.5462244 0.08102437 -0.54012716 -0.0597508 -0.14120519
-0.09733822 0.4944554 0.25716582 -0.080312364 -0.5423828 -0.15098478 -0.021361455 -0.0718249
-0.08976131 0.06691637 0.10272841 -0.14009902 0.3135726 -0.3036594 -0.3498448 -0.0092831245
-0.193787 -0.07941758 -0.192565 0.2864144 0.018146213 -0.14744234 0.10327137 -0.06775209
0.030197576 -0.054057993 0.10081045 0.07452337 0.1227158 -0.06676643 -0.013832434 -0.15395536
0.21101254 -0.39133653 0.08970148 0.16581692 0.08546726 0.15910147 0.25571927 0.20075746
-0.123768464 0.18414533 0.16023776 0.023710478 0.13303262 0.21396653 0.2834559 -0.21041861
-0.16911061 -0.17856167 0.32857537 -0.043811005 -0.66811377 0.24407484 -0.07801449 -0.20598227
-0.45438647 -0.28198206 1.14413 -0.25385234 0.5856926 0.5116458 -0.57364726 -0.4305063
-0.32792652 0.55913943 -0.3799413 0.610289 0.41583902 -0.10159381 -0.37627602 -0.27568257
0.1471721 -0.27032793 0.58518153 0.5217344 -0.54206604 -0.21410796 -0.58278805 -0.40187323
-0.60253865 0.15111136 -0.19084957 -0.2216769 -0.01303716 -0.0009627259 -0.2446754 -0.18736099
0.16728747 -0.120686464 0.3362837 0.3122397 0.31871194 0.3546358 0.5363593 0.5799493
-0.28724405 -0.124231 -0.27580717 0.11400436 0.19163296 -0.13549632 0.55910045 0.24486913
0.022819228 0.12577471 0.045073356 1.0725851 0.14395489 1.0838699 0.4418844 -0.11311292
-0.2007859 -0.12741563 0.40462366 -0.022054495 0.90544844 0.55366176 -0.035814576 0.0037949374
-0.006160716 0.19750774 0.10779974 0.8790359 0.47112375 -0.06797818 -0.14102617 0.060366977
-0.18373321 -0.16083181 -0.27457422 -0.1459713 -0.019802243 -0.024440465 0.13468342 -0.15018147

fc1.bias f4 [16]
00000000: e94e 753e 370b 283e c103 623e 7507 4e3d
00000010: a883 223e 0b8b 1e3e 78f6 e93d 2297 e83c
00000020: aa40 f73e 9c91 cd3e c2c5 833e 631b 493d
00000030: f966 15bd 0529 703e 51ba 1abe f855 4e3f
0.23955883 0.16410528 0.22071745 0.05030008 0.15870535 0.15482728 0.11423963 0.028392378
0.48291522 0.40150154 0.25736815 0.049098384 -0.036475156 0.23453148 -0.15110137 0.8059993

fc2.weight f4 [4, 8]
00000000: 56df 14bf 7e2d 4340 1dc2 b440 3dff 01bf
00000010: c12f dcbe 1030 20bf 9a50 0040 d66e 203f
00000020: a686 35bf 23bf 2140 4394 aa40 729d e6be
00000030: b5b5 26bf 379f 06bf a5a4 b53f 3aa0 d13e
00000040: 1f43 983d 332e 4740 8b28 b3be d4e0 f33e
00000050: ac4c 3a3f 403c d23b 808b 42bb b550 443e
00000060: 742d 1440 98ab 99bf 2a85 9bbf 6523 6cbf
00000070: 2df6 5ebf 99cb 81bf f532 7c3e 17c1 e0be
-0.58153284 3.0496516 5.6486955 -0.5078009 -0.43005183 -0.6257334 2.0049195 0.6266912
-0.7090858 2.527291 5.3305984 -0.45041996 -0.6512101 -0.5258669 1.419087 0.40942556
0.07434677 3.1121948 -0.3499187 0.47632468 0.7277324 0.0064158738 -0.00296852 0.19171412
2.3152742 -1.2005491 -1.2150013 -0.9224151 -0.87094384 -1.0140258 0.24628814 -0.43897316

fc2.bias f4 [4]
00000000: 7e3b 0a3f d384 e23e de46 0abf e380 813f
0.5399703 0.44241962 -0.54014385 1.0117458

fc3.weight f4 [4, 16]
00000000: d094 a23b 374b 2b3b 3a0b 31be 2ae9 6fbd
00000010: 9962 c4bd ab05 f13d 74bb f1bd 2e09 3f3b
00000020: 830a bc3c 9402 5ebd 9db6 7bbe 896f 023e
00000030: c9bf 73be cad2 48be 18ac 59bd 377c 0fbe
00000040: 281e a1bf 210c 7d3e 6815 143f b98d 083f
00000050: 7c06 873e a6dd e1be 948e 7b3e 968f e7bf
00000060: 1834 febe bc23 d1be 30ac 473e 77ac 16be
00000070: e4dc 7e3e 5833 493f b944 64bf 7bb3 ee3e
00000080: 159e 4a3f 1904 5d3f 58ec 2d3f 6f28 01be
00000090: 3404 9a3d 4e5d 843f 0f2c adbe 0cb8 46be
000000a0: 7623 913f 4f30 293f 1ac6 7d3e ceed e63e
000000b0: 99ae 4cbe e8ae 2f3f cf37 d8bc 99dc 873e
000000c0: 0f2a a93e 608d a03d f3a6 773f c51d cf3d
000000d0: eeec b23e 69aa 083f 1bac dabb e1cc 393e
000000e0: 8f06 ae3e 89d3 913e eeb0 f6be 1a44 103f
000000f0: c6e9 243d b5fe 683e 3a09 083f 1c9e 3fbe
0.0049615875 0.002613736 -0.17289439 -0.058571972 -0.095891185 0.11768659 -0.11803332 0.0029149759
0.022954231 -0.054201677 -0.2458138 0.1273786 -0.23803629 -0.1961166 -0.053142637 -0.14012228
-1.2587328 0.24711658 0.57845163 0.5334125 0.26372135 -0.44114417 0.24566108 -1.8090694
-0.4964912 -0.40847576 0.19499278 -0.14714228 0.2488895 0.7859397 -0.8916736 0.46621308
0.79147464 0.8633438 0.67938757 -0.1261308 0.07520333 1.0340974 -0.33822677 -0.19406146
1.1338947 0.6608934 0.24782601 0.45103306 -0.19988479 0.6862626 -0.0263938 0.2653549
0.330399 0.07839465 0.9673912 0.101131 0.34946388 0.53385025 -0.0066733486 0.18144561
0.3398938 0.284817 -0.48181862 0.56353915 0.040262006 0.22753413 0.5313908 -0.18712658

fc3.bias f4 [4]
00000000: dc87 f0bc 0db5 6f3e 5dee a13e dfdf 02be
-0.029361658 0.23408909 0.3162717 -0.12780713

fc4.weight f4 [4, 8]
00000000: ff32 64be e432 cebe 7752 4ec0 f0d6 c7bf
00000010: a233 37bd 8755 a1be b6a9 f1bf 0480 933e
00000020: 097b 48bf 6dc9 e8be f304 b9bf 565a 23bf
00000030: fabb 4dc0 fe97 f3bf 0a1a 013f eac9 6fc0
00000040: 24c1 3ebd 413b a4bf 15a4 45bf d75a 5bbe
00000050: 9e34 063f 83b8 663e e5b4 4f3f 815a 74c0
00000060: 1828 bebe f522 a0bf 12d0 5abf a165 7cbf
00000070: b513 cebf 082d 8cbf f2ce 88bf 6f1e 1f40
-0.22285078 -0.402732 -3.2237833 -1.5612469 -0.044726975 -0.31510565 -1.8879917 0.28808606
-0.78312737 -0.45466176 -1.4454635 -0.63809717 -3.2145982 -1.9030759 0.5043036 -3.7466989
-0.046570912 -1.2830583 -0.77203494 -0.21421371 0.5242404 0.22531323 0.811354 -3.818024
-0.37139964 -1.2510668 -0.8547374 -0.98592573 -1.6099764 -1.0951242 -1.0688155 2.4862325

fc4.bias f4 [4]
00000000: ccb5 a7bf 487d 1ec0 2677 18c0 da74 9b3f
-1.3102355 -2.4763966 -2.3822722 1.2145035
